CodeAlpha_Language Translation Tool/lt_models/packages/ur_en/stanza/ur/tokenize/udtb.pt (torch_old, 633563 bytes, 23 tensors)

embeddings.weight f4 [129, 32]
0	0x3dcc08aa	0.0996259
1	0xbdec2b66	-0.11531715
2	0x3db1ae6c	0.086758465
3	0xbdc2b1bc	-0.095065564
4	0xbd3db356	-0.046313606
5	0xbd21185d	-0.039329875
6	0xbd64572a	-0.05574719
7	0x3db91011	0.090362675
8	0x3db0c9fd	0.08632276
9	0x3d977a54	0.07396379
10	0x3d552ca3	0.052044522
11	0x3dd5ef6c	0.10446057
12	0xbce5e598	-0.02806358
13	0x3d77a69c	0.060461625
14	0xbccb4703	-0.024814134
15	0x3d24b0b6	0.040207587
16	0x3d358c91	0.044323508
17	0xbd25481d	-0.040351976
18	0xbd5685aa	-0.052373566
19	0xbd0737e3	-0.033012282
20	0xbbcd39c4	-0.0062629897
21	0x3dd0bc9c	0.101922244
22	0xbc244813	-0.010026949
23	0xbd9bb116	-0.07602136
24	0xbc2b9479	-0.01047241
25	0xbd9bc17e	-0.07605265
26	0x3ce44785	0.027866134
27	0xbdd99ee5	-0.1062601
28	0xbd399e2b	-0.045316856
29	0x3d139275	0.036028344
30	0xbbb4a53d	-0.005512862
31	0x3d71344e	0.058887772
32	0xbf8253b0	-1.0181789
33	0x3f1a922a	0.6037928
34	0xbf407130	-0.7517271
35	0xbf338a98	-0.7013335
36	0xbe855c90	-0.26047182
37	0xbdc297a3	-0.09501579
38	0xbfea3329	-1.8296863
39	0x3e79b87b	0.2438678
40	0x3f3050a7	0.68873066
41	0x3d0d9636	0.03456708
42	0xbe744e8d	-0.2385809
43	0xbf3906f7	-0.7227625
44	0x3fb8acf1	1.4427778
45	0xbf367fc9	-0.71288735
46	0x3f64bfc8	0.89355135
47	0x3e2bb220	0.16767168
48	0x3faceaee	1.3509195
49	0xbc129eb7	-0.008948973
50	0xbf86e16a	-1.0537541
51	0xbfc64c5c	-1.5492053
52	0xbf90ede1	-1.1322595
53	0x3e9cc8b3	0.3062187
54	0xbf5370d3	-0.8259403
55	0x3eb9b4bb	0.362707
56	0x3f8e6b0f	1.1126422
57	0x3fb18703	1.3869327
58	0x3ee91c9a	0.45529634
59	0x3ee40966	0.4453842
60	0xbcb7648b	-0.02238681
61	0xbf9b381f	-1.2126502
62	0xbfcb156f	-1.5865916
63	0x3effcadd	0.4995946
64	0x3f79bb78	0.9755168
65	0x3f73892b	0.95131177
66	0x3ea3159e	0.3185243
67	0xbe9ed038	-0.31018233
68	0x3ea97b1c	0.33101737
69	0xbf7e638f	-0.99370664
70	0xbe0b657b	-0.1361293
71	0x3f67e6c2	0.90586483
72	0x3ea8d771	0.3297687
73	0xbe87c7ac	-0.26519525
74	0xbfe03b61	-1.7518121
75	0x3f681a2e	0.9066495
76	0x3f65ff54	0.89842725
77	0xbd541ac1	-0.051783327
78	0xbf651a7e	-0.8949355
79	0x3f456f0f	0.77122587
80	0x3ea56b48	0.32308412
81	0xbf087d83	-0.53316516
82	0xbf4ec3e4	-0.80767655
83	0xbf4a5071	-0.79028994
84	0x3f018297	0.5058989
85	0x3f0a202a	0.5395533
86	0xbec27b67	-0.37984774
87	0x3e983b6e	0.2973284
88	0x3f687f25	0.9081901
89	0xbfb43448	-1.4078455
90	0x3d4d3c4f	0.050106343
91	0xbf564838	-0.8370395
92	0x3ee0848c	0.43851125
93	0x4013316d	2.2998917
94	0xbfe3da16	-1.780093
95	0x3e8eab34	0.27864993
96	0x3f21c435	0.63190013
97	0x3fb5dfef	1.4208964
98	0xbea0e4d9	-0.31424597
99	0xbe7f0d6e	-0.24907467
100	0x3fb6c3cc	1.4278502
101	0x3fc280e0	1.519558
102	0xbf5fe7cf	-0.87463087
103	0xbeeca72e	-0.46221298
104	0xbf64d3b8	-0.8938556
105	0xbdb4fbb3	-0.0883707
106	0xbfc88fc3	-1.5668873
107	0x3f765e3c	0.9623754
108	0x3f23dbfb	0.6400754
109	0xbcb5fe18	-0.022215888
110	0xbd25a2b4	-0.04043837
111	0x3ed21ee3	0.4103919
112	0x3f59d858	0.8509574
113	0xbe4f6d7f	-0.20256613
114	0x40234490	2.5510597
115	0x40108a5f	2.2584455
116	0xbf55b882	-0.8348466
117	0xbf2a99c9	-0.6664091
118	0x3f965a94	1.1746392
119	0x3f740b0a	0.95329344
120	0x3d499808	0.049217254
121	0xbf5a46b5	-0.8526414
122	0xbe9a64b4	-0.30154955
123	0x3fc03920	1.5017433
124	0x3eea10e6	0.45716017
125	0xbf691497	-0.9104704
126	0x3f5d6f15	0.8649762
127	0x3e83afef	0.25720164
128	0xbee0fb8c	-0.43941915
129	0xbeb79aed	-0.35860386
130	0xbfc17827	-1.5114793
131	0x3f17fbad	0.593684
132	0x3f967e10	1.1757221
133	0x3eb14b7c	0.34627903
134	0xbf0003e7	-0.50005955
135	0xbfafbb58	-1.3729048
136	0xbff1e80c	-1.889894
137	0x3f1b3d91	0.6064082
138	0xbf34db72	-0.70647347
139	0xbf2dac9a	-0.67841494
140	0x3f1d8829	0.6153589
141	0xbf1e5876	-0.6185373
142	0x3f5179a9	0.81826264
143	0x3f57fd9e	0.84371364
144	0xbf03aea1	-0.5143834
145	0x3eadd482	0.33951193
146	0x3ea5a4bb	0.32352242
147	0xbfaa0140	-1.3281631
148	0xbfa781ad	-1.3086449
149	0xbf31cf44	-0.6945689
150	0x3f537ac3	0.82609195
151	0x3f09cd53	0.53828925
152	0xbfaa85d2	-1.3322089
153	0xbec9784a	-0.39349586
154	0x3f43baca	0.7645689
155	0xbfe2cc40	-1.7718582
156	0xbf182e93	-0.59446067
157	0xbf4eb4c9	-0.80744606
158	0xbe076ca8	-0.13225043
159	0xbff2fe91	-1.8983938
160	0xbed25f94	-0.41088545
161	0xbf7e3b0c	-0.9930885
162	0xbf9a38ab	-1.2048544
163	0x3f5c770f	0.8611917
164	0xbdd01f38	-0.101622045
165	0x3e9b93e2	0.30386263
166	0x3ef4f22d	0.47841015
167	0x3f0c13ba	0.547176
168	0xc00260ab	-2.0371501
169	0xbfed17b8	-1.8522863
170	0x3f996348	1.1983423
171	0x3ec11ccd	0.37717286
172	0x3d886b67	0.0666111
173	0xbf3a6bac	-0.72820544
174	0xbf0f96ed	-0.5608967
175	0x3cd2b5c9	0.025721448
176	0xbe917dc5	-0.28416267
177	0xbf5cca73	-0.86246413
178	0xbf29a5f0	-0.66268826
179	0xbefc8c44	-0.49325764
180	0x3edc1026	0.4298107
181	0xbf0b4c1b	-0.54413
182	0xbf628195	-0.88478976
183	0x3f9c67e9	1.2219211
184	0x3f41dfff	0.75732416
185	0x3eb915e3	0.3614951
186	0xbe334fa7	-0.17510854
187	0x3f63f61a	0.89047396
188	0x3d7fca68	0.06244889
189	0x400376c6	2.0541244
190	0xbf9d154f	-1.2272128
191	0x3fa56a57	1.2923077
192	0xbf5f8c8d	-0.8732384
193	0x3f66020e	0.89846885
194	0xbee4d0b5	-0.4469048
195	0x3fd0f949	1.6326076
196	0x3fa89054	1.3169045
197	0x3ee1b37f	0.44082257
198	0x3f0f434e	0.55962074
199	0xbf48be72	-0.78415596
200	0x3f410fc0	0.7541466
201	0xbf77a277	-0.96732277
202	0x3faff592	1.3746817
203	0xbfac8c7d	-1.3480374
204	0xbe39fa5c	-0.18161911
205	0xbf9575d8	-1.1676588
206	0xbf8337f0	-1.0251446
207	0xbff073de	-1.878536
208	0xbe2e1792	-0.17001179
209	0xbf7abd87	-0.97945446
210	0xbf968d4f	-1.1761874
211	0xbe6af37c	-0.22944444
212	0xbf3c428c	-0.7353904
213	0x3f016cb4	0.5055649
214	0xbef4ccb8	-0.47812438
215	0x3f085bc8	0.5326505
216	0x3f225980	0.63417816
217	0xbf176998	-0.591455
218	0x3f662a5c	0.89908385
219	0xbf1b24a9	-0.60602814
220	0x3f71d9a4	0.9447272
221	0x3f9e8178	1.2383261
222	0xbdb3f429	-0.08786804
223	0xbeb921dc	-0.36158645
224	0x3edf1808	0.43573022
225	0x3ebaf504	0.36515057
226	0xbe9f94f2	-0.31168324
227	0x403469dc	2.8189611
228	0x3e7b5d9a	0.24547425
229	0xbe6b8847	-0.23001204
230	0x3f8d838b	1.1055769
231	0xbe9cf4a8	-0.30655408
232	0x3e8214ee	0.25406593
233	0xc004f01f	-2.0771558
234	0xbfa1abef	-1.2630595
235	0x3efb5797	0.49090263
236	0xbde626e0	-0.112378836
237	0xbe96adef	-0.29429576
238	0xbf78a7ef	-0.97131246
239	0x3dc5917c	0.096468896
240	0xbe0b4a64	-0.13602597
241	0x3f1047b8	0.56359434
242	0x3de94635	0.11390344
243	0x3eb34793	0.35015544
244	0x3e83fc18	0.2577827
245	0x3f1ca5ad	0.611903
246	0xbf258c47	-0.6466717
247	0xbf401352	-0.7502948
248	0x3dd64987	0.10463243
249	0xbd30ef14	-0.043196753
250	0xbf559e42	-0.8344461
251	0xbd339721	-0.0438453
252	0xbf5c8233	-0.8613617
253	0xbefca093	-0.49341258
254	0x3f101b9e	0.5629214
255	0xbe9a845e	-0.30179113

rnn.weight_ih_l0 f4 [256, 36]
0	0x3dd029bc	0.1016421
1	0x3ce509be	0.027958747
2	0xbd612662	-0.054968245
3	0x3dd64640	0.10462618
4	0xbd0d5376	-0.034503423
5	0x3e04d28e	0.12970945
6	0xbdc5f571	-0.09665955
7	0x3d656eac	0.056013748
8	0x3d90947d	0.07059572
9	0xbcb276fa	-0.021785248
10	0x3c119d67	0.008887625
11	0x3e227a11	0.15866877
12	0x3e111b10	0.1417048
13	0xbe2bb74e	-0.16769144
14	0xbd2bac66	-0.04191246
15	0x3c395bf2	0.011313425
16	0xbd13c57b	-0.036077004
17	0x3d009f13	0.031401705
18	0xbde5319a	-0.11191101
19	0xbe82e6af	-0.25566623
20	0x3e16244b	0.14662282
21	0xbd80a9d2	-0.06282391
22	0x3d5a8c45	0.053356428
23	0x3e2def68	0.16985857
24	0xbd3ecbc8	-0.04658106
25	0x3ce8dc6c	0.028425418
26	0x3e1cd361	0.1531501
27	0xbc023f19	-0.007949614
28	0x3e1815fc	0.14852136
29	0xbdfa1671	-0.122113116
30	0xbe052849	-0.13003649
31	0xbcbad69d	-0.022807414
32	0xbe1d0e7e	-0.1533756
33	0x3e3f4e2e	0.18682167
34	0x3dc4988e	0.0959941
35	0xbe0b4860	-0.13601828
36	0xbdb5d1ef	-0.08877932
37	0xbdc2e627	-0.09516554
38	0xbdea65f6	-0.11445229
39	0x3dcdf674	0.10056773
40	0xbe014270	-0.12623
41	0xbe0862e8	-0.1331898
42	0x3cdfcd1e	0.027319487
43	0x3d7e20a2	0.06204284
44	0xbb0a1a8e	-0.0021072957
45	0x3dfc5623	0.12321117
46	0x3e8d37d4	0.27581656
47	0x3e1ba417	0.15199314
48	0x3dd68efa	0.10476489
49	0x3e6fcd81	0.23418237
50	0xbd7bd91f	-0.06148636
51	0xbe7ff143	-0.24994378
52	0xbe7f52b2	-0.2493389
53	0x3e61c074	0.22046071
54	0xbdfdf49e	-0.12400173
55	0xbdafca27	-0.085834794
56	0x3e59346f	0.21211408
57	0x3e9908e1	0.29889587
58	0xbd4b2948	-0.049599916
59	0xbe9b4c6e	-0.3033175
60	0x3e0ef2a4	0.13959748
61	0xbde3c3f9	-0.11121363
62	0xbe536822	-0.20645192
63	0x3d9876af	0.07444512
64	0xbd8d3ef1	-0.06896771
65	0x3c1ed260	0.009693712
66	0xbd3adba5	-0.045619626
67	0xbdcb3670	-0.099224925
68	0x3e17554d	0.14778633
69	0xbd8716ce	-0.065961465
70	0x3d9fe0da	0.07806559
71	0x3cf86c34	0.030325033
72	0xba44a9dd	-0.0007502118
73	0x3cf63be1	0.03005785
74	0xbdc092cf	-0.094030015
75	0xbd6dc7dd	-0.058051933
76	0x3e20aced	0.15690966
77	0x3d23aa7e	0.039957516
78	0xbca0166d	-0.019541943
79	0x3afe79bc	0.0019414942
80	0xbe50cb7e	-0.20390126
81	0xbc105879	-0.008810156
82	0xbdb0d9ef	-0.086353175
83	0x3e403b2d	0.18772574
84	0xbd2d41d9	-0.042299125
85	0xbe976956	-0.29572552
86	0xbd881f7b	-0.066466294
87	0xbd800d90	-0.06252587
88	0xbdef120c	-0.11673364
89	0x3c178065	0.00924692
90	0xbe3ee75c	-0.18642944
91	0x3d3f131b	0.04664908
92	0xbdf3ebeb	-0.11910232
93	0xba8a2668	-0.001054001
94	0xbe000bf6	-0.12504563
95	0xbe05b7c8	-0.13058388
96	0x3e3d994c	0.1851551
97	0xbdde0182	-0.10840131
98	0xbb91e73e	-0.004452615
99	0xbe08c312	-0.13355663
100	0x3c974651	0.018466147
101	0xbd90daa2	-0.07072951
102	0x3da4e098	0.0805065
103	0x3e78af7b	0.2428569
104	0xbde8b37f	-0.11362361
105	0x3c3d8b63	0.011568877
106	0xbca2677a	-0.019824732
107	0xbda28c78	-0.079369485
108	0x3dcca397	0.0999214
109	0xbd997bc9	-0.07494313
110	0x3e0c063b	0.13674252
111	0xbb19da5e	-0.0023476104
112	0x3e354aea	0.17704359
113	0xbcf2af14	-0.0296245
114	0xbde68e5d	-0.112576224
115	0x3e84ebfa	0.25961286
116	0x3e602dc2	0.21892455
117	0xbacdbe63	-0.0015696998
118	0xbdaa942d	-0.083290435
119	0xbdf17ec4	-0.11791757
120	0x3e3b436b	0.18287437
121	0xbd372f23	-0.044722687
122	0x3df95df8	0.12176126
123	0x3c9db419	0.019250916
124	0x3e079022	0.13238576
125	0x3bd128d2	0.00638304
126	0xbc3e3424	-0.011609111
127	0xbe8b93b7	-0.27261135
128	0xbda472a2	-0.08029677
129	0x3e03fb81	0.1288891
130	0x3df93d8d	0.12169943
131	0xbe27e7b9	-0.16396989
132	0x3deaea65	0.114704885
133	0xbd11b18b	-0.03556971
134	0x3e937bce	0.28805393
135	0xbe2f0d6b	-0.17094962
136	0xbd791f1c	-0.060820684
137	0xbe37f516	-0.17964587
138	0xbd8ca263	-0.0686691
139	0xbd33f30f	-0.04393297
140	0x3f05eb39	0.52312046
141	0xbc71141c	-0.014714267
142	0xbdfe44d0	-0.12415469
143	0xbeb4b0b0	-0.35291052
144	0xbdea8836	-0.114517614
145	0x3e2c1605	0.16805275
146	0x3d97b746	0.074080035
147	0x3e9f04be	0.31058306
148	0xbdbdb2d1	-0.09262622
149	0xbd8e9aba	-0.069631055
150	0xbe04ea76	-0.12980065
151	0x3e92e6a8	0.28691602
152	0x3ea3f7de	0.32025045
153	0xbe9746fa	-0.29546338
154	0x3c30604a	0.010765145
155	0xbd8abca5	-0.06774262
156	0xbd429e68	-0.04751435
157	0xbe920218	-0.28517222
158	0xbe4afa50	-0.19822049
159	0x3dc33688	0.095318854
160	0x3d4d0df0	0.05006212
161	0xbea3daaa	-0.32002765
162	0xbe08c9a3	-0.13358168
163	0xbe47254a	-0.19447818
164	0x3e6e40a7	0.2326685
165	0x3e09bcad	0.1345088
166	0xbe0003b6	-0.12501416
167	0xbe35a161	-0.17737342
168	0x3e43c6b1	0.19118764
169	0x3e49b47b	0.19697754
170	0x3e2da61c	0.16957897
171	0xbdda73e2	-0.10666634
172	0x3e8bc37e	0.27297586
173	0x3e851ff6	0.26000947
174	0xbea275f8	-0.31730628
175	0x3d62ae1d	0.05534183
176	0x3eafc905	0.34333053
177	0xbe609cb5	-0.21934779
178	0xbe012260	-0.1261077
179	0xbe91a829	-0.2844861
180	0x3b1dcb6b	0.0024077545
181	0x3b41396e	0.0029483694
182	0x3d4b256f	0.049596246
183	0x3c84d82d	0.016216362
184	0x3c1cbb88	0.009566195
185	0x3d1776a7	0.03697839
186	0x3d9309e9	0.071796246
187	0xbde547b6	-0.111953184
188	0xbe4afeaa	-0.19823709
189	0xbd3c27b7	-0.045936313
190	0xbccce9a2	-0.025013749
191	0xbd45f8c6	-0.048332952
192	0xbb06181e	-0.0020461152
193	0x3df39900	0.11894417
194	0x3dafad87	0.085780196
195	0xbe0dbe0f	-0.13842033
196	0xbe016737	-0.1263703
197	0xbe2c7c5a	-0.16844311
198	0x3ddc547b	0.10758301
199	0x3d95bfb7	0.07311957
200	0xbe54860b	-0.20754258
201	0xbd9903e4	-0.07471445
202	0x3e74eba2	0.23918012
203	0xbdfce1d8	-0.12347764
204	0xbe303ba1	-0.17210247
205	0xbe0fb9b0	-0.14035678
206	0xbd14db10	-0.036341727
207	0xbd464fe0	-0.04841602
208	0xbdad7545	-0.08469633
209	0x3dacf996	0.08446042
210	0x3c40233b	0.01172715
211	0xbdd27ee1	-0.102781065
212	0x3da75d27	0.08172064
213	0x3d8c8b1e	0.06862472
214	0x3d05bb8c	0.03264956
215	0xbe8c1b2c	-0.2736448
216	0xbc50de1b	-0.012748267
217	0xbe6bfa15	-0.23044617
218	0x3e358884	0.17727858
219	0xbd63c3f0	-0.055606782
220	0x3829591c	4.037573e-05
221	0xbea35788	-0.3190272
222	0x3b8dbd47	0.004325542
223	0x3d97fb0b	0.074209295
224	0xbdff0478	-0.12452024
225	0xbc10baf5	-0.0088336365
226	0x3e4152cc	0.18879241
227	0x3d0e1aa7	0.034693386
228	0xbdc9deb6	-0.09856932
229	0x3ddff965	0.1093624
230	0xbe6930ac	-0.22772473
231	0xbd41fe37	-0.04736158
232	0xbdb58111	-0.08862508
233	0xbe0361e6	-0.12830314
234	0xbda6ac1f	-0.08138298
235	0x3c264ba9	0.010149875
236	0x3e1987d4	0.1499322
237	0x3d7a4921	0.061104897
238	0x3d5000c5	0.050781984
239	0x3d617382	0.055041797
240	0xbe761148	-0.2403003
241	0xbd231ece	-0.0398243
242	0xbe41178b	-0.18856637
243	0xbcc7e22b	-0.024399837
244	0x3bd50c7a	0.0065017315
245	0x3d6d273d	0.05789875
246	0xbcb5fcc6	-0.022215258
247	0x3b9b3dac	0.0047375765
248	0xbea39244	-0.3194753
249	0xbccf024a	-0.025269646
250	0xbe6e0894	-0.2324546
251	0x3e3d8d2c	0.18510884
252	0xbc70938c	-0.014683615
253	0xbcf3983e	-0.02973568
254	0xbd83d93e	-0.0643792
255	0x3cb42d07	0.021994127

rnn.weight_hh_l0 f4 [256, 64]
0	0xbd573f1b	-0.052550416
1	0x3de335dc	0.11094257
2	0xbd82e66c	-0.06391606
3	0xbe2dd9db	-0.16977637
4	0x3c6f4aa1	0.014605195
5	0x3d83e321	0.06439806
6	0xbdf872ae	-0.121312484
7	0xbd336e83	-0.043806564
8	0xbd91205a	-0.07086249
9	0x3d1b5fde	0.037933223
10	0xbe81ccff	-0.25351712
11	0x3d8c8da2	0.06862952
12	0xbdbd132f	-0.092321746
13	0xbc5a9436	-0.013341
14	0xbdbe3e41	-0.09289218
15	0x3ea3837a	0.31936246
16	0x3dc0bf6b	0.0941151
17	0xbd93446f	-0.07190787
18	0x3d3b5422	0.045734532
19	0xbdc6ed58	-0.097132385
20	0x3d56cd7f	0.05244207
21	0xbcd412d1	-0.025887879
22	0x3e2e3a7e	0.170145
23	0x3e15cf73	0.14629917
24	0x3b79c7d6	0.0038113496
25	0xbe57fbb6	-0.21092114
26	0xbdd24421	-0.10266901
27	0x3d8a26a9	0.06745655
28	0x3e0981ea	0.13428465
29	0x3e10fe43	0.14159493
30	0xbdf84b9e	-0.12123798
31	0x3d89ae87	0.067227416
32	0x3da847bc	0.08216807
33	0x3e49a91d	0.19693418
34	0xbe09e936	-0.13467869
35	0xbd50420b	-0.050844233
36	0xbe0b8246	-0.13623914
37	0xbd90470b	-0.070448
38	0x3d8b3954	0.06798044
39	0x3c7671dc	0.015041795
40	0x3dbbde79	0.09173293
41	0xbd6e538d	-0.05818515
42	0xbdc82b90	-0.09773934
43	0x3d6773f3	0.056507062
44	0xbe1d84e1	-0.1538272
45	0xbe332581	-0.17494775
46	0x3dad4ef9	0.084623285
47	0x3e61bc75	0.22044547
48	0x3e580943	0.21097283
49	0xbe516859	-0.20449962
50	0x3e4155e0	0.18880415
51	0xbd3288e5	-0.043587584
52	0x3e2df2a4	0.16987091
53	0x3cb695c1	0.022288205
54	0xbd04f318	-0.032458395
55	0xbe2b26d6	-0.16714033
56	0x3d6f06f5	0.058356244
57	0x3d67c376	0.05658289
58	0xbd8c32bb	-0.068456136
59	0x3c1703bf	0.009217202
60	0x3e32da24	0.17466027
61	0xbe0ea096	-0.13928446
62	0xbdcb66fb	-0.09931751
63	0xbd805fab	-0.06268247
64	0xbd1f2494	-0.038853243
65	0xbe53bf91	-0.20678546
66	0x3ca0c9d5	0.019627491
67	0x3e6b4827	0.22976743
68	0xbe22b46e	-0.15889141
69	0xbdbc152c	-0.09183726
70	0xbd8fa354	-0.07013574
71	0x3e7ebc13	0.24876432
72	0x3e603804	0.21896368
73	0xbdaeff9e	-0.08544849
74	0xbe489e84	-0.19591719
75	0xbe5efb97	-0.21775661
76	0x3dad5e74	0.08465281
77	0xbe39ce0a	-0.18145004
78	0x3d0e0fe0	0.03468311
79	0xbce44f98	-0.027869985
80	0x3e853afc	0.26021564
81	0x3dc27f53	0.094969414
82	0xbd9c109b	-0.07620355
83	0x3c9f5610	0.019450217
84	0x3eb7c5b0	0.3589301
85	0x3ea6788e	0.3251385
86	0xbdf61d96	-0.12017362
87	0xbd87ff5d	-0.066405036
88	0xbdef7c5f	-0.11693644
89	0x3d5d01aa	0.053956665
90	0xbd28e830	-0.041237056
91	0xbd6d2002	-0.057891853
92	0xbe023a27	-0.12717496
93	0x3de86913	0.11348166
94	0xbe618c01	-0.22026064
95	0x3e9064c2	0.28201872
96	0x3e1b6f71	0.1517923
97	0xbacce538	-0.0015632277
98	0x3e579b9a	0.21055451
99	0x3dac30ff	0.08407783
100	0x3e8140d2	0.25244766
101	0xbe46018f	-0.19336532
102	0x3d3ad297	0.04561099
103	0x3e890778	0.2676351
104	0x3dc4e9b0	0.09614885
105	0xbd163933	-0.036675643
106	0xba974eae	-0.0011543834
107	0xbd13dfcf	-0.036102112
108	0xbdb17cb9	-0.08666367
109	0xbb8b5e15	-0.004253159
110	0x3ec40ffa	0.3829344
111	0xbe1c01e0	-0.1523509
112	0x3cc1b25e	0.023644622
113	0xbd0a453f	-0.033757444
114	0x3da82844	0.08210805
115	0xbe9e42b8	-0.30910277
116	0xbcd71efe	-0.026259895
117	0xbe431312	-0.19050243
118	0xbe4391b7	-0.19098555
119	0x3e2a10a3	0.16607909
120	0xbe5d37b4	-0.2160328
121	0x3dae2534	0.0850319
122	0x3d57e022	0.052703984
123	0x3ab79893	0.0014007263
124	0xbe3a042e	-0.18165657
125	0xbd501c1d	-0.05080806
126	0x3db6d256	0.08926837
127	0x3d0df060	0.034653068
128	0x3b44244e	0.0029928866
129	0x3e19e5a0	0.15029001
130	0xbca78632	-0.020449731
131	0xbe2c87d6	-0.16848692
132	0x3de1c373	0.11023607
133	0x3e1bbcb2	0.152087
134	0xbe30d92c	-0.17270344
135	0xbda738fe	-0.08165167
136	0xbe516093	-0.20446996
137	0x3e034ff1	0.12823464
138	0xbe38c20f	-0.18042777
139	0x3bffb535	0.007803584
140	0xbe9c3e43	-0.30516252
141	0xbd0ddc0f	-0.034633692
142	0xbdd7d0a9	-0.10537846
143	0x3eb9cfb6	0.36291283
144	0x3dce6200	0.10077286
145	0xbb8c8173	-0.0042878925
146	0x3d4dd06a	0.050247587
147	0xbd9e5d09	-0.07732589
148	0xbe47fb29	-0.19529404
149	0xbc7c420d	-0.015396607
150	0xbc9eb065	-0.01937122
151	0xbe22fc29	-0.15916504
152	0xbd031c85	-0.03200962
153	0xbd0e798d	-0.03478389
154	0x3d37a695	0.0448366
155	0x3e0ae2d8	0.13563097
156	0xbdc7fa8a	-0.097645834
157	0xbc6da0b1	-0.014503644
158	0x3cea256c	0.028582297
159	0xbe1c8424	-0.15284783
160	0xbd6a18f0	-0.05715269
161	0x3d590d95	0.05299147
162	0xbdb189ac	-0.08668837
163	0xbe2893d3	-0.1646264
164	0x3deda46d	0.11603627
165	0x3c691314	0.01422574
166	0xbd068ad7	-0.03284725
167	0x3e59e685	0.21279342
168	0x3d8edc05	0.06975559
169	0xbe37b26a	-0.17939153
170	0x3dc89374	0.097937495
171	0xbcf71417	-0.030160947
172	0xbe12ae06	-0.14324197
173	0x3e536062	0.20642236
174	0x3d6ade1f	0.057340737
175	0x3d6bdc55	0.057583172
176	0xbe564f76	-0.2092875
177	0x3d9a495e	0.07533525
178	0x3e28a7b4	0.16470224
179	0x3e1efa54	0.1552518
180	0x3e5235e3	0.20528369
181	0xbdf75f37	-0.12078708
182	0xbe5f5ce0	-0.21812773
183	0x3e532c03	0.20622258
184	0xbdeba8f7	-0.11506837
185	0x3d4e9bfa	0.05044172
186	0xbc49409a	-0.012283469
187	0xbd12f548	-0.03587845
188	0xbe279f4e	-0.16369364
189	0xbda768b1	-0.08174265
190	0x3dd6efd6	0.10494964
191	0xbe20fe3d	-0.15721984
192	0xbc9c28ba	-0.019062389
193	0xbe46f241	-0.1942835
194	0x3bd13ec9	0.0063856584
195	0x3d295c48	0.041347772
196	0x3d90ea54	0.070759445
197	0xbe2e6154	-0.17029315
198	0x3d2c1583	0.042012703
199	0xbe074bf4	-0.13212568
200	0xbe5991db	-0.21247046
201	0xbda392d1	-0.079869874
202	0x3dc5bb50	0.09654868
203	0xbb4f9cb7	-0.0031679103
204	0xbd4f6eb2	-0.050642677
205	0x3e88ed66	0.2674362
206	0x3d568f00	0.05238247
207	0x3da798aa	0.08183415
208	0xbe011baf	-0.12608217
209	0xbd1ade5b	-0.03780971
210	0x3e6d84b1	0.23195149
211	0x3d7c7b48	0.061641008
212	0x3e248ea5	0.1607004
213	0xbd7d9810	-0.061912596
214	0x3b903d62	0.0044018487
215	0x3df669b9	0.12031884
216	0xbcb85233	-0.022500133
217	0x3d9d4c9a	0.07680626
218	0xbcb95537	-0.022623641
219	0xbccd2ec6	-0.025046717
220	0x3e679a52	0.22617462
221	0x3d9a28ed	0.07527337
222	0xbdf72a21	-0.12068582
223	0xbe0e656f	-0.13905881
224	0x3e1dd6b2	0.15413931
225	0x3d4bc534	0.049748614
226	0x3e030989	0.12796606
227	0xbd3262a8	-0.043551117
228	0x3e0bace9	0.13640179
229	0x3e1616b9	0.14657106
230	0x3cd97626	0.026545595
231	0x3c0f7212	0.008755224
232	0xbe0609b7	-0.13089643
233	0xbe05d1e3	-0.13068347
234	0xbe325fe9	-0.174194
235	0x3cbd8045	0.023132453
236	0xbdfb1bac	-0.12261137
237	0xbcedc40e	-0.02902415
238	0xbc72d9df	-0.014822452
239	0x3d091102	0.033463486
240	0x3e31acab	0.17351024
241	0x3d9ab79a	0.075545505
242	0x3e879a6a	0.26484996
243	0x3dc546c4	0.09632638
244	0xbd2c4162	-0.04205454
245	0x3c82e81b	0.015979817
246	0x3e0c9717	0.13729511
247	0xbe2e67d0	-0.17031789
248	0xbe1b2e46	-0.1515437
249	0x3e719578	0.23592174
250	0xbe134019	-0.1437992
251	0x3cdd723e	0.027032014
252	0x3d8e29da	0.06941576
253	0x3e114c1d	0.14189191
254	0x3b611959	0.0034347384
255	0x3e0c43a2	0.13697675

rnn.bias_ih_l0 f4 [256]
0	0xbaa5e643	-0.0012657124
1	0xbd5f21e9	-0.0544757
2	0xbcb67fbb	-0.022277704
3	0xbc943779	-0.018092858
4	0x3d2f3dfb	0.04278372
5	0x3cf5756e	0.029963221
6	0xbc12206c	-0.008918863
7	0x3e710bd0	0.23539662
8	0xbbc061f0	-0.00587105
9	0x3deabacd	0.11461411
10	0xbb0433d2	-0.002017249
11	0x3db960a6	0.09051637
12	0x3c9efe58	0.01940839
13	0x3e8a0556	0.26957196
14	0x3ddaf0db	0.10690471
15	0x3c7b8591	0.015351669
16	0x3da5fb57	0.0810458
17	0x3d5694fb	0.052388173
18	0x3d823991	0.06358636
19	0x3d7f41d1	0.062318627
20	0x3d759c51	0.059963528
21	0x3e0e8e60	0.13921499
22	0x3dcb44b6	0.09925215
23	0x3e3ad70c	0.18246096
24	0xbce40de1	-0.02783865
25	0xbd27e41b	-0.040989023
26	0xbce54bbf	-0.02799022
27	0x3e0ecfc3	0.13946442
28	0xbd38c4ac	-0.045109436
29	0xbcd19f3e	-0.025588628
30	0x3b28db1d	0.0025765367
31	0xbd5d66e5	-0.054053206
32	0x3dd2f053	0.102997445
33	0x3e4d067c	0.20022005
34	0x3e2bd3f1	0.16780068
35	0x3e5fddcf	0.21861957
36	0x3e53f095	0.20697244
37	0x3d34f874	0.044182256
38	0x3e5c5332	0.21516111
39	0x3e03d56b	0.12874381
40	0x3db27d97	0.087153606
41	0x3ddb7a0a	0.107166365
42	0x3ce2711c	0.027641825
43	0x3d832773	0.06404009
44	0xbd5ce98b	-0.05393366
45	0x3e3c20c9	0.18371882
46	0x3bbd1b26	0.0057710586
47	0x3c57ac1c	0.013163593
48	0x3d2ce2f7	0.042208638
49	0x3e96f909	0.29486874
50	0x3e2aad32	0.16667631
51	0x3dcc4a67	0.099751286
52	0x3e42d141	0.19025137
53	0xbcbaa906	-0.022785675
54	0x3cd66d8b	0.026175281
55	0x3e201be8	0.15635645
56	0x3e2645c9	0.16237558
57	0x3dae46f1	0.08509625
58	0xbc783501	-0.015149356
59	0x3e4a76f3	0.19771938
60	0x3dc34cad	0.09536109
61	0x3db74658	0.08948964
62	0xbd4e0eea	-0.050307192
63	0x3db58a3b	0.08864256
64	0x3d67258b	0.05643229
65	0x3e1990ba	0.14996615
66	0xbda38b62	-0.079855695
67	0x3ceecc20	0.029150069
68	0xbb4ad8b4	-0.003095192
69	0xbd4eb4a0	-0.050465226
70	0x3c88ced6	0.01670019
71	0xbdb6d1d4	-0.0892674
72	0xbcab47e8	-0.020908311
73	0x3ba8f5bf	0.0051562483
74	0x3dcd5842	0.100265995
75	0x3d6299e7	0.055322554
76	0x3d8664b9	0.0656218
77	0xbe6cbbe6	-0.23118553
78	0x3cd3c6af	0.025851576
79	0xbea67842	-0.32513624
80	0x3d801111	0.06253255
81	0x3c93cab1	0.018040987
82	0xbe8f9c5c	-0.2804898
83	0xbd2b5c14	-0.04183586
84	0x3c228e09	0.009921559
85	0xbc2f5d87	-0.010703451
86	0xbd9b7e10	-0.07592404
87	0xbe49372d	-0.19649954
88	0xbe033df1	-0.12816598
89	0xbc5178a1	-0.012785108
90	0x3e59ccef	0.21269582
91	0xbddaec4c	-0.10689601
92	0x3ce0a699	0.02742319
93	0xbd76824c	-0.060182855
94	0x3dcb8288	0.09937006
95	0xbc8ce1aa	-0.017197449
96	0x3d136721	0.035987023
97	0xbcd883cf	-0.026430039
98	0xbddf2190	-0.108950734
99	0xbdf9b4ed	-0.12192712
100	0xbd8c86eb	-0.06861671
101	0x3d7fe32a	0.0624725
102	0x3deccb72	0.115622416
103	0xbb877fde	-0.004135116
104	0x3e535438	0.20637596
105	0xbc889d4d	-0.01667657
106	0xbdc3c73b	-0.095594846
107	0xbdd681d0	-0.104739785
108	0xbde6852a	-0.11255868
109	0xbc12efce	-0.008968307
110	0x3d90c17d	0.07068155
111	0x3e1e5e1c	0.15465587
112	0xbdb688b8	-0.08912796
113	0xbe850859	-0.2598293
114	0x3d0d7254	0.03453286
115	0xbd4f7ab9	-0.050654147
116	0xbe0c8d6a	-0.1372582
117	0xbd00bfb6	-0.03143283
118	0xbd2ebb29	-0.04265896
119	0x3d66fdc5	0.056394357
120	0x3d78835a	0.06067214
121	0xbc92747c	-0.01787781
122	0xbd0863e4	-0.033298388
123	0xbe6415b5	-0.22273906
124	0x3ddb4888	0.107071936
125	0xbdc894dd	-0.097940184
126	0xbd8fca8d	-0.07021055
127	0x3e3476dd	0.17623468
128	0xbd8ffc7f	-0.07030582
129	0xbde9e884	-0.11421302
130	0x3d135acc	0.035975263
131	0xbddd75b3	-0.10813465
132	0xbdc4800e	-0.09594737
133	0x3c96e3a3	0.018419093
134	0x3bf620dc	0.0075112414
135	0x3d92fe5c	0.071774215
136	0x3c8c398d	0.017117286
137	0x3de2c48d	0.11072645
138	0x3d7cb3ac	0.061694786
139	0xbe3ed697	-0.18636547
140	0xbd0d381b	-0.034477334
141	0x3d6b9dff	0.057523724
142	0xbe37cf0a	-0.17950073
143	0xbd56e649	-0.05246571
144	0x3d416ccc	0.047222897
145	0x3ddd2849	0.107986994
146	0x3bacf6a4	0.0052784253
147	0xbe399a10	-0.18125176
148	0x3dcda395	0.100409664
149	0x3e15d081	0.14630319
150	0x3d60693a	0.054787852
151	0x3cc0038c	0.023439191
152	0xbb577e8f	-0.0032881831
153	0x3d199881	0.037498955
154	0xbcedd7b8	-0.029033527
155	0x3d2137b0	0.03935975
156	0x3d384e7a	0.044996716
157	0x3d912965	0.070879735
158	0xbd4982ad	-0.049196888
159	0xbdda9824	-0.1067355
160	0x3e2cb1d9	0.16864718
161	0xbdcd3f39	-0.100218244
162	0x3db92046	0.09039359
163	0xbda57ccc	-0.08080444
164	0x3e262621	0.16225483
165	0xbe43bf99	-0.19116057
166	0xbe737410	-0.23774743
167	0x3cddecd2	0.027090464
168	0xbe585de9	-0.21129574
169	0xbda57bf2	-0.08080281
170	0x3df52b9e	0.1197121
171	0xbc5ca9bf	-0.013468205
172	0xbddcfea3	-0.107907556
173	0x3e69eaf1	0.2284353
174	0x3dcf4194	0.1011993
175	0x3cdf4716	0.027255576
176	0x3daf3cc9	0.08556516
177	0x3e1b092e	0.1514022
178	0xbdd33c2e	-0.10314213
179	0x3c5a8c89	0.01333917
180	0xbdcaa6a9	-0.09895069
181	0xbdbfe68c	-0.09370145
182	0x3ddacc4f	0.106835
183	0x3dbfb0ff	0.09359931
184	0xbda420d5	-0.08014075
185	0x3d38344b	0.044971745
186	0xbe1fc613	-0.15602903
187	0xbe410232	-0.18848494
188	0x3d4071ee	0.04698365
189	0x3c3f8346	0.011689013
190	0x3cb643eb	0.022249183
191	0x3df2cb0d	0.11855135
192	0x3d24f80c	0.04027562
193	0x3e6678b8	0.22506988
194	0xbd0e7331	-0.034777824
195	0x3e1cbf41	0.15307333
196	0x3e18695f	0.14883946
197	0x3d576e6e	0.05259555
198	0x3dcad2c2	0.0990348
199	0x3e2e52f1	0.17023827
200	0x3dad3372	0.08457078
201	0xbc112c8d	-0.008860719
202	0x3e1f4bdf	0.15556286
203	0x3d684759	0.056708667
204	0x3e0f70cb	0.14007871
205	0x3e5ec8dd	0.21756311
206	0x3c51c56f	0.0128034195
207	0x3d8f835d	0.070074774
208	0x3e027cf3	0.12742977
209	0x3cb10b4a	0.021611828
210	0x3e2e65e2	0.17031053
211	0x3de9c41f	0.1141436
212	0x3d7122c6	0.058871053
213	0x3e563e08	0.209221
214	0x3d95f453	0.07321992
215	0x3df325a3	0.11872413
216	0x3e2365d3	0.15956812
217	0xba9371e5	-0.0011249153
218	0xbd934738	-0.07191318
219	0x3d816d98	0.063197315
220	0x3d4345a5	0.04767384
221	0xbde8de03	-0.113704704
222	0xbdc52b7c	-0.096274346
223	0xbb32d16e	-0.0027285474
224	0x3d97077f	0.07374477
225	0x3da8d999	0.082446285
226	0x3e2c0f9c	0.1680283
227	0x3e257b6e	0.16160366
228	0x3e1d8bf9	0.15385427
229	0x3e231e24	0.15929466
230	0x3cf488f1	0.029850455
231	0x3c1a96a9	0.009435334
232	0x3d5675b6	0.05235835
233	0x3e227ee1	0.15868713
234	0x3d5c4ae1	0.053782348
235	0x3ba0b94f	0.004904903
236	0xbd3944d1	-0.045231644
237	0x3babb533	0.0052401065
238	0x3e67ab7c	0.2262401
239	0x3e08fc31	0.13377453
240	0x3d91c548	0.071177065
241	0x3ebb6c3b	0.3660601
242	0x3e5fddbd	0.2186193
243	0x3d2535e8	0.040334612
244	0x3e0bed4b	0.13664739
245	0xbcf69126	-0.030098509
246	0x3e55843a	0.20851222
247	0x3e052bb2	0.1300495
248	0x39c60055	0.0003776575
249	0x3d57a6f6	0.05264946
250	0x3c2cb460	0.010541052
251	0x3e510b37	0.20414434
252	0x3ce935af	0.028467981
253	0x3e11428d	0.14185543
254	0x3d70e297	0.058809843
255	0x3b0b899f	0.0021291745

rnn.bias_hh_l0 f4 [256]
0	0xbd2d2b4e	-0.042277627
1	0x3dce10d6	0.10061805
2	0xbc8501ca	-0.016236205
3	0x3b8b22c4	0.0042460877
4	0x3e408fb9	0.18804826
5	0x3d98faeb	0.07469734
6	0x3e1b0302	0.15137866
7	0xbc35a5c3	-0.011086884
8	0x3d8f155e	0.06986497
9	0x3e0257f9	0.12728871
10	0x3dab7984	0.08372787
11	0xbc1bb10b	-0.00950266
12	0x3d5eaaa2	0.054361947
13	0x3e210d22	0.15727666
14	0x3dc57d85	0.096430816
15	0x3e4f406c	0.20239419
16	0x3e7f4253	0.24927644
17	0x3da80742	0.08204509
18	0x3e071960	0.13193274
19	0x3d79113c	0.06080745
20	0xbd931fb1	-0.07183779
21	0x3d84ad25	0.06478337
22	0x3e564d29	0.20927872
23	0x3db95722	0.090498224
24	0xbca7136e	-0.020395007
25	0xbd5be59f	-0.05368578
26	0xbe2d6506	-0.16933069
27	0x3e4cdef7	0.2000693
28	0xbdcb3104	-0.09921458
29	0x3e055282	0.13019755
30	0x3e3d6b33	0.18497925
31	0x3d4a9d3e	0.049466364
32	0x3e409d96	0.18810114
33	0x3de88e70	0.11355293
34	0x3e0275f5	0.1274031
35	0xbc92b69a	-0.017909337
36	0x3e6f21ad	0.2335269
37	0x3e6d6307	0.23182307
38	0x3e827f3b	0.25487694
39	0x3e3361d8	0.17517793
40	0x3e75a776	0.23989663
41	0x3e74f103	0.23920064
42	0x3c31b918	0.010847352
43	0x3dc9314e	0.09823857
44	0x3dd4a252	0.10382523
45	0x3d85e052	0.06536926
46	0x3d74b333	0.05974121
47	0x3e2dd54d	0.16975899
48	0x3e46c6fb	0.19411843
49	0x3e40b4a6	0.18818912
50	0x3c4d7216	0.012539407
51	0x3c59fe84	0.01330531
52	0x3e8e6af0	0.27815962
53	0x3deaf118	0.11471766
54	0x3cc26f39	0.023734676
55	0x3dddecb1	0.10836161
56	0x3e3cfd92	0.18456104
57	0x3e060b13	0.13090162
58	0xbcc4c82b	-0.024021229
59	0x3a4be3f5	0.00077778037
60	0x3c8c87c9	0.017154591
61	0x3cfecbed	0.031103099
62	0xbd9398a7	-0.072068505
63	0x3ba774d4	0.0051103625
64	0xbd52e58e	-0.05148845
65	0x3e1667e7	0.14688073
66	0xbd5a78d2	-0.05333788
67	0xbdbc61db	-0.09198352
68	0xbe0d07f1	-0.1377256
69	0x3d23ab77	0.039958443
70	0x3e0c45ae	0.13698456
71	0x3d23b4a1	0.039967183
72	0xbd780ff3	-0.060562085
73	0x3d9a9e76	0.07549755
74	0xbc6237b8	-0.01380723
75	0x3d343ab8	0.04400131
76	0xbdf3ea8d	-0.119099714
77	0xbe60eb68	-0.219648
78	0x3d99638e	0.07489692
79	0xbe1edfd2	-0.15515068
80	0xbe0e938c	-0.13923472
81	0xbe21b992	-0.15793446
82	0xbd7558ee	-0.059899263
83	0x3d51d29f	0.051226255
84	0x3c1a36db	0.009412493
85	0x3d903ab5	0.070424475
86	0xbcadde6a	-0.02122422
87	0xbe0c4baa	-0.13700739
88	0xbdb2f631	-0.087383635
89	0xbccef175	-0.02526162
90	0xbcfa0ef6	-0.030524712
91	0xbcd579fb	-0.026059141
92	0x3cc49514	0.023996867
93	0xbe0fa879	-0.14029111
94	0x3d5d5665	0.05403747
95	0x3d2bcf03	0.04194547
96	0x3da911dd	0.0825536
97	0xbe1f2f69	-0.1554543
98	0xbe1bbe2d	-0.15209265
99	0xbe0a690b	-0.13516633
100	0x3dbfa8ea	0.0935839
101	0xbd5a8a24	-0.053354397
102	0x3d990dad	0.074733116
103	0x3db24906	0.08705334
104	0x3d0cc1eb	0.034364622
105	0xbc69effc	-0.014278408
106	0x3dacbab9	0.08434052
107	0xbdce84d1	-0.100839265
108	0xbd9e6b10	-0.07735264
109	0x3d6d465a	0.05792842
110	0x3c0fc184	0.008774165
111	0x3c381705	0.011235957
112	0xbce2df94	-0.027694501
113	0xbe52f0be	-0.20599648
114	0xbabbcc03	-0.0014327768
115	0x3d495491	0.049152914
116	0x3d50c739	0.050971244
117	0xbd2b046c	-0.041752264
118	0xbdb3cb9d	-0.087790705
119	0x3d82fb79	0.06395621
120	0x3db8ffde	0.09033178
121	0xbb2a9db0	-0.002603393
122	0xbd75a895	-0.059975225
123	0xbd672399	-0.056430433
124	0x3e0237c4	0.12716585
125	0x3d4b9073	0.049698304
126	0x3c4e1742	0.012578787
127	0x3e16a990	0.1471312
128	0x3d3a259b	0.04544602
129	0xbdb1f554	-0.08689371
130	0xbc2b6dd6	-0.010463199
131	0x3d9ebff5	0.07751457
132	0xbd316b59	-0.043315265
133	0xbc97c603	-0.018527037
134	0xbe0cb6f3	-0.13741665
135	0xbd0e9ba0	-0.034816384
136	0xbc28fb16	-0.01031377
137	0x3e5f4813	0.21804838
138	0xbd61cd4c	-0.055127427
139	0xbe33621e	-0.17517897
140	0x3dc3bd69	0.095576115
141	0x3dad783a	0.08470197
142	0xbe60258e	-0.21889326
143	0x3d93c429	0.07215149
144	0x3cb6fd82	0.022337679
145	0xbd6fe026	-0.058563374
146	0x3d5b4c38	0.053539485
147	0xbddd07cc	-0.10792503
148	0x3d5eff1a	0.054442503
149	0x3e18eab6	0.14933285
150	0xbdf2bda0	-0.11852574
151	0xbe223b6a	-0.15842977
152	0xbdb573b7	-0.088599615
153	0xbc2e3e87	-0.010635025
154	0x3df793d0	0.1208874
155	0x3dd6118d	0.10452566
156	0x3d774018	0.06036386
157	0x3d9b85ef	0.07593905
158	0xbe7167a3	-0.2357469
159	0xbd7bffde	-0.06152331
160	0x3e6e3d35	0.23265536
161	0xbc30beb8	-0.010787658
162	0xbc271401	-0.01019764
163	0xbd3fe886	-0.04685261
164	0xbc7c7fb7	-0.015411309
165	0xbe0ebd30	-0.13939357
166	0xbe543556	-0.20723471
167	0xbd2c1991	-0.04201657
168	0xbe5c1bb9	-0.2149495
169	0xbc891d0e	-0.016737487
170	0xbce5698f	-0.028004436
171	0xbd9d9519	-0.07694454
172	0x3c0dca49	0.008654186
173	0x3d545858	0.051842064
174	0x3da8dd2a	0.08245309
175	0xbd4800ae	-0.048828773
176	0x3d9546f8	0.07288927
177	0x3d0f01f9	0.03491399
178	0xbd007244	-0.031358972
179	0xbe08a9ea	-0.13346067
180	0xbdc0ad9b	-0.094081126
181	0xbe118ae1	-0.14213134
182	0x3de4fdf1	0.11181248
183	0xbb84e5b3	-0.0040557026
184	0xbe232814	-0.15933257
185	0x3c8294fa	0.015940178
186	0x3d92fa7b	0.071766816
187	0xbb31bfb2	-0.0027122316
188	0x3d3b83fa	0.04578016
189	0x3e413d41	0.18871023
190	0x3d91d106	0.07119946
191	0x3e0f0007	0.13964854
192	0x3c3c4c7c	0.011492845
193	0x3e4a9b1d	0.19785734
194	0x3de87ace	0.11351548
195	0x3e2b55ab	0.16731898
196	0x3e588c72	0.21147326
197	0x3c984424	0.01858718
198	0xbd046bef	-0.032329496
199	0x3e885df8	0.26634192
200	0x3e3aee48	0.1825496
201	0x3e41a505	0.18910606
202	0x3e0aff54	0.13573962
203	0x3e1cc490	0.15309358
204	0x3d63bb50	0.055598557
205	0x3dcc9a97	0.09990423
206	0xbd89f16a	-0.06735499
207	0x3e2286ed	0.15871783
208	0x3e42c33f	0.19019793
209	0x3d100340	0.03515935
210	0x3e5c21b9	0.21497239
211	0x3d72e2be	0.05929827
212	0x3dd67dd9	0.10473222
213	0x3df82b89	0.12117679
214	0x3e5dfdcc	0.21678847
215	0x3e435ab1	0.19077565
216	0x3e72f6ca	0.23726955
217	0xbd92eae1	-0.07173706
218	0x3da09725	0.078413285
219	0x3e407445	0.18794353
220	0x3e4fea32	0.20304182
221	0x3d983aca	0.07433088
222	0x3dfeda08	0.1244393
223	0xbd07b9fe	-0.03313636
224	0x3e3736d9	0.17892016
225	0x3e44a834	0.1920479
226	0x3e276240	0.16346073
227	0xbd4d09cb	-0.050058167
228	0x3d8a6823	0.06758144
229	0x3cfae24e	0.030625489
230	0xbc9499f4	-0.018139817
231	0x3e713465	0.23555143
232	0x3dff7ed9	0.12475366
233	0x3e3be8e1	0.18350555
234	0x3e118fc3	0.14214997
235	0x3aad6cc5	0.0013231268
236	0xbd639e6f	-0.055571016
237	0x3da1331c	0.078710765
238	0x3da5e49a	0.08100243
239	0x3d8ef361	0.069800146
240	0x3e02d7db	0.12777655
241	0x3e9c1eae	0.30492157
242	0x3dfbbddf	0.122920744
243	0x3e7e4974	0.24832708
244	0x3d1ab0f1	0.0377664
245	0x3dc58250	0.09643996
246	0x3e020c3a	0.12699977
247	0x3e2eb37e	0.17060658
248	0xbc156d84	-0.009120349
249	0x3df4dbe0	0.11956
250	0x3cdeb929	0.0271879
251	0x3e05fb24	0.13084084
252	0x3cd1ba9f	0.025601683
253	0x3d48687a	0.04892776
254	0xbd58da04	-0.05294229
255	0x3e4a6e90	0.19768739

rnn.weight_ih_l0_reverse f4 [256, 36]
0	0x3d56e6ca	0.05246619
1	0xbe2bf567	-0.16792832
2	0x3de68b36	0.11257021
3	0x3d636e49	0.055525098
4	0x3ca4929a	0.020089436
5	0xbe03a3f9	-0.1285552
6	0x3cd1eb81	0.025624992
7	0x3d804f5b	0.06265136
8	0xbe5cc8a6	-0.21560916
9	0x3d7d329a	0.061815836
10	0x3e4ab176	0.19794258
11	0x3e338da4	0.175345
12	0xbd2a6896	-0.041603647
13	0x3e0480fc	0.12939829
14	0x3d87f86f	0.06639182
15	0x3e1a1327	0.15046369
16	0xbd9255de	-0.07145284
17	0xbddd8c55	-0.10817782
18	0xbe0fb686	-0.14034471
19	0xbd72ab26	-0.05924525
20	0x3e1878a8	0.14889777
21	0xbe95c186	-0.2924921
22	0xbcb8eafa	-0.022572983
23	0x3d2c3901	0.04204655
24	0x3d8e803e	0.06958054
25	0xbca6e0f7	-0.020370943
26	0xbe5b0a7c	-0.21390718
27	0x3df08f8b	0.11746129
28	0x3ea00c98	0.31259608
29	0x3ab53239	0.0013824172
30	0x3dd5b8a8	0.10435611
31	0x3d190138	0.037354678
32	0xbed91fcb	-0.4240707
33	0xbc6ca32e	-0.014443202
34	0xbe11e48f	-0.14247344
35	0xbed9b0de	-0.4251775
36	0xbd36de39	-0.04464552
37	0xbcde01ba	-0.027100433
38	0x3d285429	0.041095886
39	0xbe042a59	-0.1290678
40	0x3e06398b	0.13107888
41	0x3e1beec2	0.15227798
42	0xbd5910a2	-0.052994378
43	0xbb1ffa48	-0.0024410654
44	0x3e0584b5	0.13038905
45	0xbdc2e14c	-0.09515628
46	0xbe10e0de	-0.1414828
47	0x3e1a8883	0.15091138
48	0xbc866da5	-0.016409704
49	0x3d8d2ca8	0.06893283
50	0x3e0df1ee	0.1386182
51	0x3df06dfc	0.11739728
52	0x3d9032e1	0.070409544
53	0x3d930278	0.07178205
54	0x3d7f888e	0.062386088
55	0xbdf46d2b	-0.11934885
56	0xbdeaf3d7	-0.1147229
57	0xbce632c8	-0.028100386
58	0x3dea7ed3	0.11449971
59	0xbdbed45d	-0.09317849
60	0x3d4ccd23	0.05000032
61	0x3c827b1e	0.015927847
62	0xbdc6e2ae	-0.097112045
63	0xbdc5c722	-0.09657122
64	0xbdd924a5	-0.106026925
65	0x3c67686e	0.014124019
66	0xbda45dfc	-0.080257386
67	0xbdcb2745	-0.099195994
68	0x3d989d70	0.07451904
69	0x3dd70aa3	0.10500076
70	0xbb98a9e6	-0.0046589253
71	0xbd4af211	-0.04954726
72	0x3e183461	0.14863731
73	0xbe2319d4	-0.15927821
74	0x3ddbc35d	0.10730622
75	0x3dbe5de3	0.09295251
76	0x3e21bfb1	0.1579578
77	0x3ccacb78	0.024755225
78	0x3d12b085	0.035812873
79	0xbe3af648	-0.18258011
80	0xbe47213f	-0.19446276
81	0x3ec4b726	0.3842098
82	0x3dcdac6f	0.10042655
83	0x3de6cfaf	0.11270081
84	0xbd8ce8f4	-0.0688037
85	0x3d505240	0.05085969
86	0x3c37d5d3	0.011220413
87	0xbd81af60	-0.06332278
88	0xbd551d0d	-0.052029658
89	0xbd582f74	-0.05277963
90	0x3df98898	0.12184256
91	0xbd34be4a	-0.044126786
92	0xbe662e5d	-0.22478624
93	0xbd342651	-0.043981854
94	0x3e82519a	0.25452882
95	0xbccf6388	-0.025316015
96	0xbe140b08	-0.14457333
97	0xbe291785	-0.16512878
98	0xbe9d063b	-0.30668816
99	0xbde4a134	-0.111635596
100	0xbdf69612	-0.120403424
101	0x3cb3c22e	0.021943178
102	0x3ddb0606	0.10694508
103	0x3e249fd4	0.16076595
104	0xbf2f9a65	-0.6859496
105	0xbe434262	-0.19068292
106	0x3c531251	0.012882785
107	0xbe9e6fc2	-0.3094464
108	0xbd47b19e	-0.048753373
109	0xbe7a36af	-0.24434923
110	0x3df18840	0.11793566
111	0x3ea5238b	0.3225368
112	0xbd74a5fa	-0.0597286
113	0x3e1f5e3b	0.1556329
114	0xbd598a4c	-0.053110406
115	0x3db91ba8	0.09038478
116	0xbcc9f608	-0.02465345
117	0x3e1cfa40	0.15329838
118	0x3ea5bd82	0.32371145
119	0x3dd3fd4e	0.103510484
120	0xbde6c12f	-0.112673156
121	0x3d06cfb3	0.03291292
122	0x3cb1c2e7	0.021699382
123	0xbeaa74f3	-0.3329235
124	0xbdc563c1	-0.09638167
125	0x3eacefaa	0.337766
126	0xbd5ea3c8	-0.054355413
127	0xbe0bea09	-0.13663496
128	0x3cdb1f94	0.026748456
129	0xbe4129f9	-0.18863668
130	0x3dc5d694	0.09660068
131	0xbed74851	-0.4204736
132	0xbca6032c	-0.020265184
133	0x3d5c2f0a	0.053755797
134	0xbdff8763	-0.12476995
135	0xbd1d5f55	-0.038420994
136	0xbcd16ec0	-0.025565505
137	0x3da34169	0.0797146
138	0x3e1d6a3e	0.1537256
139	0x3cb43ec0	0.022002578
140	0xbf307785	-0.6893237
141	0xba0af7ad	-0.0005301189
142	0x3df4183d	0.119186856
143	0xbe6f79d3	-0.23386316
144	0x3e027f5b	0.12743895
145	0xbd6d9617	-0.058004465
146	0x3c5c91f1	0.0134625295
147	0x3e8c13ea	0.27358943
148	0x3ce63cc0	0.02810514
149	0x3cd5ff6d	0.026122773
150	0x3e96acca	0.29428703
151	0x3e64cd74	0.22343999
152	0xbe4a3645	-0.19747265
153	0x3d4f6cf5	0.05064102
154	0xbdcbac1b	-0.09944936
155	0x3ece6bf7	0.40316746
156	0xbe56c757	-0.2097448
157	0x3d937a1d	0.07201026
158	0xbe31b0e8	-0.1735264
159	0x3e44a28c	0.19202632
160	0xbd0796a0	-0.03310263
161	0xbd80bf18	-0.06286448
162	0xbd85113b	-0.06497427
163	0xbe296e69	-0.16546024
164	0x3dd126a2	0.10212447
165	0x3cf3bd81	0.029753448
166	0x3d3fd936	0.046838008
167	0x3e3b742d	0.18306036
168	0xbe1ed4a1	-0.15510799
169	0xbdedc2b3	-0.116094016
170	0xbe9e868a	-0.3096202
171	0x3e9a062c	0.30082834
172	0x3ee7ddc4	0.4528638
173	0xbd611f22	-0.05496133
174	0x3e69ed44	0.22844416
175	0x3cc5a1d6	0.024125021
176	0xbea9cd80	-0.33164597
177	0xbcb8f247	-0.022576464
178	0xbda1cac7	-0.07900005
179	0x3e04ceda	0.12969533
180	0x3c56df7a	0.013114804
181	0x3d4036a9	0.046927128
182	0xbe43f3dd	-0.19135995
183	0xbbd2620e	-0.0064203804
184	0x3d344e49	0.04401997
185	0x3def8952	0.11696114
186	0xbc06cad0	-0.008227065
187	0xbd0ef4a6	-0.034901284
188	0x3cf69386	0.030099642
189	0xbe846a46	-0.2586233
190	0xbe139546	-0.14412412
191	0x3dd0aff9	0.10189814
192	0xbd9a3681	-0.07529927
193	0x3d4c9497	0.049946394
194	0xbda7d16c	-0.08194241
195	0x3d822103	0.06353953
196	0xbe21b8f6	-0.15793213
197	0xbd5e0827	-0.054206993
198	0x3d54135a	0.051776268
199	0x3db4e0f9	0.08831973
200	0x3dc5ec46	0.09664206
201	0x3d95f96a	0.073229626
202	0x3da00ca7	0.07814913
203	0xbddcc52c	-0.10779795
204	0x3d123a90	0.03570038
205	0xbd53048b	-0.051518004
206	0x3d1e34ff	0.03862476
207	0x3d82f0c5	0.063935794
208	0xbd7b78aa	-0.06139437
209	0x3cdc3dae	0.02688488
210	0xbbc05d9c	-0.005870534
211	0xbda96ba8	-0.08272487
212	0x3ef68f45	0.4815618
213	0x3d9f2aa5	0.07771806
214	0x3e4f3b83	0.20237546
215	0xbdbdc5b2	-0.09266223
216	0xbe06565b	-0.1311888
217	0xbe0f2a70	-0.13981032
218	0x3da94a9a	0.08266182
219	0x3ddd820e	0.108158216
220	0xbdbfec80	-0.09371281
221	0x3d826431	0.06366766
222	0xbe27a8e6	-0.16373023
223	0x3d6970d2	0.05699236
224	0x3dba2f52	0.09091057
225	0xbdadf3f7	-0.08493798
226	0x3e0a776e	0.13522121
227	0x3e6f91ec	0.23395509
228	0xbaec6b0a	-0.0018037271
229	0x3c3ebc7b	0.011641617
230	0x3e05bf6d	0.13061304
231	0x3e32ca59	0.17460002
232	0x3dd91929	0.10600502
233	0x3e729073	0.23687916
234	0xbe3a4985	-0.18192108
235	0xbe58c26f	-0.2116792
236	0xbddeb013	-0.10873427
237	0x3ec26ede	0.3797521
238	0x3d87fe6b	0.06640323
239	0xbe117540	-0.14204884
240	0x3e96b7ab	0.29437003
241	0xbd0d66ee	-0.03452199
242	0xbe5626cd	-0.20913239
243	0x3e81b837	0.25335857
244	0x3db9054a	0.09034212
245	0xbd10145e	-0.035175674
246	0xbd2cb9a7	-0.04216924
247	0x3df088b1	0.11744822
248	0xbe44e7fc	-0.1922912
249	0x3d94be5e	0.07262872
250	0xbcd7e2d3	-0.026353275
251	0xbebecee7	-0.3726723
252	0xbd810c0b	-0.06301125
253	0x3e079429	0.13240112
254	0xbd92fca1	-0.071770914
255	0x3e6a3c29	0.22874512

rnn.weight_hh_l0_reverse f4 [256, 64]
0	0xbcd6a823	-0.02620322
1	0xbe3836bf	-0.17989634
2	0xbd09edab	-0.033673923
3	0x3df8b425	0.12143735
4	0x3e829878	0.2550695
5	0xbdd11228	-0.10208541
6	0x3d2eae48	0.042646676
7	0xbcb59251	-0.022164496
8	0x3de87ff6	0.113525316
9	0xbc8efb40	-0.01745379
10	0xbcf51e9f	-0.029921828
11	0x3d0e20d4	0.034699276
12	0xbd82365f	-0.06358027
13	0xbd2763ba	-0.04086659
14	0x3ca3ee7a	0.020011175
15	0x3ca6b8d5	0.020351807
16	0x3d3a99b6	0.045556746
17	0xbdb4fe23	-0.08837535
18	0xbd1897dc	-0.0372542
19	0x3e175653	0.14779024
20	0x3d3437bf	0.043998476
21	0x3c7cd42f	0.015431448
22	0x3dfe22a9	0.12408955
23	0x3cf0f803	0.029415136
24	0x3e292493	0.16517858
25	0x3dcb6b7c	0.099326104
26	0x3d46b0c4	0.04850842
27	0x3e2b9b06	0.16758355
28	0x3ad2037b	0.0016022766
29	0xbce5af8c	-0.028037809
30	0x3e03fa08	0.12888348
31	0x3df81318	0.12113017
32	0xbcbdb28a	-0.023156423
33	0xbd1d312c	-0.038376972
34	0x3e442955	0.19156392
35	0x3e0fa561	0.14027931
36	0x3d3ed3f3	0.04658885
37	0xbe0c5e78	-0.13707912
38	0x3b5797ce	0.003289688
39	0x3e3fd5fb	0.18733971
40	0x3e6bc1d8	0.23023164
41	0x3e1eca39	0.1550683
42	0x3baa4057	0.005195658
43	0x3dcd7f5a	0.10034056
44	0xbdc76b30	-0.09737241
45	0x3d0c2275	0.03421255
46	0xbdb75f81	-0.08953763
47	0x3d7921de	0.060823314
48	0x3cdfdb0e	0.027326133
49	0x3cf2b0d7	0.02962534
50	0xbc014eda	-0.007892335
51	0x3d92ec8f	0.07174026
52	0x3da53a04	0.08067706
53	0xbe22dbda	-0.15904179
54	0x3ad63ee4	0.0016345647
55	0xbd802e0a	-0.06258781
56	0xbdf2faf2	-0.1186427
57	0xbccbcdcc	-0.024878405
58	0x3de5371e	0.111921534
59	0x3e1c6e64	0.15276486
60	0xbe4e4c45	-0.20146282
61	0xbd378419	-0.044803713
62	0x3e1ee0d4	0.15515453
63	0x3e2160bb	0.15759556
64	0xbd724532	-0.05914802
65	0xbe2a3442	-0.16621497
66	0xbcdfd6a4	-0.027324028
67	0xbc91759a	-0.017756272
68	0x3c2f944d	0.01071651
69	0x3e1b9284	0.1519261
70	0x3c1e5904	0.009664778
71	0x3d9fc695	0.078015484
72	0x3e0786e4	0.1323505
73	0xbcc6954e	-0.024241116
74	0x3c238e40	0.0099826455
75	0x3d692c63	0.056927096
76	0xbdfc4a16	-0.12318818
77	0x3dc0225e	0.09381555
78	0xbd0e9dae	-0.034818344
79	0xbe0a6d25	-0.13518198
80	0xbd102111	-0.035187785
81	0x3d3af06b	0.045639437
82	0x3e061810	0.13095117
83	0x3d7f6e9f	0.062361356
84	0xbe1435cf	-0.14473651
85	0xbe4b66b8	-0.19863403
86	0xbca19d7b	-0.019728413
87	0x3e27bd47	0.16380797
88	0xbd0589ec	-0.032602236
89	0xbc8a6b22	-0.016896788
90	0xbe11ea28	-0.1424948
91	0x3d98174a	0.07426317
92	0xbe0ed54d	-0.13948555
93	0x3d9b5479	0.07584471
94	0xbbd71c7f	-0.0065646763
95	0x3dde5ef7	0.10857957
96	0xbd27d856	-0.0409778
97	0x3dc0b3b0	0.09409273
98	0x3dc1490c	0.09437761
99	0x3c836952	0.016041432
100	0x3e274c7b	0.16337769
101	0xbe13aa6a	-0.14420477
102	0x3d59d373	0.05318017
103	0xbdc27061	-0.09494091
104	0x3d837aea	0.06419928
105	0xbc2e5304	-0.01063991
106	0xbe238b96	-0.15971217
107	0x3e07aac3	0.13248734
108	0x3de6051a	0.11231442
109	0xbe792505	-0.24330528
110	0x3b81b774	0.003958637
111	0x3e21c679	0.15798368
112	0xbde23e84	-0.1104708
113	0xbe1de423	-0.15419059
114	0x3d956297	0.07294195
115	0xbe277f41	-0.16357137
116	0xbe455cbb	-0.19273655
117	0xbc29026d	-0.01031552
118	0xbe87c147	-0.26514646
119	0x3b939e1b	0.0045049316
120	0x3dbe0df1	0.09280003
121	0xbd60687a	-0.054787137
122	0x3d46998a	0.04848627
123	0x3e0a39d6	0.13498625
124	0x3d87d128	0.0663169
125	0x3ca8cb6e	0.020604815
126	0xbd331306	-0.043719314
127	0xbd0bfaeb	-0.03417484
128	0xbdc4a0fe	-0.09601019
129	0xb8e40c7c	-0.000108742126
130	0x3d9b52ac	0.07584128
131	0x3e65a8a3	0.22427611
132	0x3e4e6576	0.20155892
133	0xbd933c0c	-0.071891874
134	0xbc394daf	-0.011310025
135	0xbd210606	-0.039312385
136	0xbd54cfe5	-0.051956076
137	0x3e23cf35	0.15997012
138	0xbd2a8689	-0.04163221
139	0xbe0632c2	-0.131053
140	0x3cf0d9a9	0.029400663
141	0xbdcd85a3	-0.10035255
142	0xbd9fcfa5	-0.07803277
143	0xbcbd3601	-0.02309704
144	0x3d7a3cf7	0.061093297
145	0xbde9e00d	-0.114196874
146	0x3d7527e1	0.059852485
147	0x3d8dccb1	0.069238074
148	0x3d8bedcf	0.06832468
149	0xbe2306f0	-0.15920615
150	0xbd58e1b9	-0.05294964
151	0x3d2862b2	0.04110975
152	0x3e79e521	0.24403812
153	0x3d84eb97	0.06490248
154	0x3d7240b4	0.059143737
155	0x3ce04a1c	0.027379088
156	0x3c53002f	0.012878462
157	0xbcedb238	-0.029015645
158	0xbd5231b8	-0.051316947
159	0x3e9c556d	0.30533925
160	0xbd69e238	-0.057100505
161	0xbd68a76b	-0.056800287
162	0x3da69775	0.08134357
163	0x3d9b8f92	0.07595743
164	0xbcf8a710	-0.0303531
165	0xbe16ae79	-0.14714994
166	0xbddb55f4	-0.10709754
167	0x3d49376b	0.049125116
168	0xbed562ab	-0.4167684
169	0x3c7cce41	0.015430034
170	0xbd38b583	-0.045094978
171	0xbd82fe0c	-0.06396112
172	0x3e0bfb61	0.13670112
173	0xbdc0706f	-0.09396445
174	0xbdedead3	-0.11617055
175	0x3db48735	0.08814851
176	0xbe0bd84b	-0.13656728
177	0x3aadbcbb	0.0013255099
178	0x3e452382	0.19251826
179	0xbd011c8b	-0.03152136
180	0xbe45688b	-0.19278161
181	0x3d294bc2	0.041332014
182	0x3d749a58	0.059717506
183	0xbe2ac063	-0.16674952
184	0xbd7c7a9b	-0.061640363
185	0xbcc2cdd5	-0.023779789
186	0x3e18655f	0.1488242
187	0x3dae7038	0.08517498
188	0x3ded6eba	0.11593385
189	0x3d5302c4	0.05151631
190	0x3ac99f91	0.0015382638
191	0xba8e5f35	-0.0010862114
192	0xbd25d0bd	-0.04048227
193	0xbe0a812e	-0.1352584
194	0x3debf780	0.11521816
195	0x3ce09d9f	0.02741891
196	0x3de62916	0.11238305
197	0xbe016915	-0.12637742
198	0x3d7571d7	0.05992302
199	0x3d14b832	0.036308475
200	0xbd9d9bb3	-0.07695713
201	0x3cc51c7d	0.024061436
202	0xbc684a3a	-0.014177853
203	0xbde689b4	-0.112567335
204	0x3e13ac84	0.14421278
205	0x3e1ff455	0.15620549
206	0xbd386578	-0.045018643
207	0xbbe7598d	-0.007060236
208	0xbb241476	-0.002503661
209	0xbc3abfeb	-0.011398296
210	0x3d35cbb0	0.044383705
211	0x3d9586e2	0.073011175
212	0xbd630e72	-0.055433698
213	0x3d8407ec	0.064468235
214	0xbe10876a	-0.14114156
215	0xbccb349c	-0.02480536
216	0x3d24369c	0.040091142
217	0x3d29db14	0.041468695
218	0xbde4795c	-0.1115596
219	0xbd22b440	-0.03972268
220	0x3c665d8b	0.014060388
221	0x3e258e04	0.16167456
222	0xbd7942f4	-0.060854867
223	0x3e2a936e	0.16657802
224	0xbe0a0eae	-0.13482162
225	0x3e6a0ab5	0.22855647
226	0xbe282055	-0.16418584
227	0xbc993eea	-0.018706758
228	0x3e14aedf	0.14519833
229	0x3da89c09	0.08232886
230	0xbcc72457	-0.02430932
231	0xbc1ba7fa	-0.009500498
232	0xbe9e9547	-0.30973265
233	0x3cca7a23	0.024716442
234	0xbdb1fc90	-0.086907506
235	0x3dcc55fb	0.09977337
236	0x3dca2266	0.09869842
237	0x3dd7a4be	0.10529469
238	0xbde7b68d	-0.11314116
239	0x3ad83daa	0.001649787
240	0x3ce4d65b	0.027934244
241	0x3c9acb04	0.018895634
242	0x3d605a93	0.05477388
243	0xbdbc6768	-0.09199411
244	0xbe01980e	-0.1265566
245	0xbc3cb4f3	-0.011517751
246	0xbd10df71	-0.03536934
247	0xbcdfa5f7	-0.027300818
248	0xbe228358	-0.15870416
249	0xbe26c510	-0.16286111
250	0xbcef1f7e	-0.029189821
251	0xbd4a60bc	-0.04940866
252	0x3db50945	0.08839659
253	0xbe186840	-0.14883518
254	0x3e357142	0.17718986
255	0x3d80647f	0.06269168
